cem_policy_best.pth.tar (torch, 12447 bytes, 4 tensors)

weight f4 [200, 8]
00000000: cf59 e93d 50f7 3b3d 6d4f 15bd c437 1e3e
00000010: d444 a8be 7da0 09bd 429e 2d3e 8f0b f73c
00000020: dada 133e c8e4 f23e 38f6 c23e f3a0 6e3d
00000030: 6315 14bf f913 dabe 2e71 7bbe 5da1 d1be
00000040: 5def a93d 8fa0 b9be 82df 1dbe e2ec dcbe
00000050: d851 8abe ddd5 edbe 4fe5 6fbd 4bc3 17be
00000060: fd6b 9ebd dde3 653e b825 913e e372 dbbe
00000070: 3a7e a63e 7f84 c43d b85d 603d feca 96bd
00000080: 62a8 69be d2e1 f3ba 0c93 493e b67a 4a3e
00000090: cf64 a0bd e3ae 03bd 7175 b5bd cce1 1abe
000000a0: 57fc ef3d 49eb 0abd 1f2c aa3e 8134 1c3e
000000b0: 3572 19bf 38a3 66be 35d2 863e dbbd ba3e
000000c0: fa0b 253e 0b08 9d3d 5c3d 2d3e 3363 903e
000000d0: c5ca 86be 1a31 a4bd 5537 8fbe f0ae 8cbe
000000e0: 9db6 ad3d e47e 0b3c e9f3 49be 4cf8 d33d
000000f0: 640f ff3d a87d a1bd a8e8 d33d e066 c6bc
00000100: bc40 233f 0061 96be 2384 9b3d bd76 ecbe
00000110: 6d2a 2dbe d2c3 283d 5e2c cd3d 3062 94ba
00000120: a925 d83c ca1b 8dbe 07f6 02be e829 07bf
00000130: 1e38 81be daa6 bdbe 1f29 debc 4a1a 883d
00000140: 5661 453e 19f0 c3be 6816 a4bd d552 e4be
00000150: 746f b2be b584 be3d d424 83be 700a d03d
00000160: 0f0d 55bd deaa 83be 90c2 5f3e 73e4 10be
00000170: 2fed 36be 25cf b9be 218e 6bbe 985c 843e
00000180: 71a4 2dbe 4aa6 773e b7b0 673e f5cf a43e
00000190: c9fe 38bf 17c1 88be 921c ad3d c219 903e
000001a0: 71db 3abe 98d9 833a 20b1 00be 541d 123f
000001b0: 46e0 aa3d 7788 cebd 445e d43d d7fe bdbe
000001c0: ffd8 0cbe 4d75 cfbe e249 c8bd 661a 4a3f
000001d0: 3774 49be 1b96 ab3d dcca ab3d e042 e03b
000001e0: a4cc cc3e bc4f b8bd 9c64 aa3e 6af4 c8be
000001f0: 7be2 743e 6bb8 9bbc 38aa 8cba b363 3d3e
00000200: bd90 8b3d 83c5 6a3e bf00 753e 9d07 0f3d
00000210: 142f aebe bb22 eebe a2f7 933e 265b 15be
00000220: bf95 83bd f2aa 7ebb f0a7 65be 3b9b 26bf
00000230: 13ba 2c3f 7984 e7bd b76b 793e 9240 0ebe
00000240: 2443 3d3d 0c99 8f3e 06e9 c03e 84f4 92be
00000250: e5ec 8d3e d513 55be af5c ee3d 5d4b d03e
00000260: afb1 8ebd bdb1 58be 4b62 033e 5a3b 01bf
00000270: e0d8 83be 08ce 5b3e 237a 173e 9706 363e
00000280: 3cba 813e f866 bbbd a049 c8bd 070d 983c
00000290: 27ce 633e 265a b2bd 1549 84be 7d66 c1be
000002a0: ee7e cb3d 8e18 3e3c cc97 2bbe 5cd7 8bbe
000002b0: 3eea eb3d c9f5 4bbe 828a c9bd 2062 92be
000002c0: c458 973e 3032 4e3c 25d6 a73e 8b4c 08be
000002d0: 2de7 05be eb31 fcbd 4b3b 51be 58c9 fc3d
000002e0: 72f0 683e e729 813c 8d90 06be a073 e8bd
000002f0: 91a6 a23e 1033 4c3c 0f66 b1be 5dee abbe
00000300: c92a 85bd 0af0 083d dd8c 9a3e e4ca 9dbc
00000310: 67f9 063e f1fa 09be cb04 ad3d eb2f 89be
00000320: 08ae 4abe 441e 953e 50a4 6b3e 7892 4b3d
00000330: 387c 00be 4d5c c4be c962 f0be e2d4 a9bd
00000340: d60c 0bbe aef1 043d e44d c7be a764 5fbe
00000350: 8c47 033f 44ba 0b3e 9dc1 dcbd 82bf 733e
00000360: b085 3e3e ce8d 793e 363c eabe cbcd 703c
00000370: 994b 863e 2526 653e 9839 3e3e 4bc1 a1be
00000380: 4688 23be 1a3f 74bd 3af1 af3b e86c 2cbf
00000390: a167 0b3f 01a5 df3e 722f 593d 4ac2 863c
000003a0: a1f8 fd3d 0371 c4bd acf5 f8bd 3984 e2bd
000003b0: b55f 833d 4961 b0be e4eb 343d 60c6 ba3e
000003c0: a6aa 83be 6008 973e 113f 0bbf e338 5c3e
000003d0: 269c 1fbd 5c1a 633d 3ef1 f4bd 4ba1 a53e
000003e0: 06b5 c13d 6f23 76be 4db5 c5be 2315 8fbd
000003f0: b4d7 963e 4153 503e 6b67 9b3c ef43 8abe
0.11394083 0.045890152 -0.0364527 0.1545096 -0.32865012 -0.03360032 0.16954902 0.030156879
0.14438954 0.4744017 0.38078475 0.058258962 -0.57845134 -0.42593363 -0.24554893 -0.40943423
0.08297608 -0.3625531 -0.15417293 -0.43149477 -0.27015567 -0.46452227 -0.058568295 -0.14820592
-0.07735441 0.22450204 0.2834909 -0.4286109 0.32518178 0.09595584 0.054776877 -0.073629364
-0.22818139 -0.0018606728 0.19685 0.19773373 -0.07831728 -0.032149207 -0.08860291 -0.15125197
0.11718052 -0.03391579 0.33236787 0.15254404 -0.5993989 -0.225232 0.2633225 0.36472973
0.1611785 0.0766755 0.16917938 0.28200683 -0.26326576 -0.08017178 -0.27971902 -0.27477217
0.08482096 0.00851414 -0.1972195 0.10350093 0.124541074 -0.07885295 0.1034711 -0.024218976
0.6377065 -0.2937088 0.075935625 -0.4618434 -0.16910715 0.041202374 0.10018228 -0.0011320766
0.026385145 -0.27560264 -0.12789164 -0.5279832 -0.25238127 -0.3704136 -0.027119217 0.06645639
0.19275412 -0.38269117 -0.08012086 -0.44594446 -0.34850657 0.093026556 -0.25614035 0.10158241
-0.052014407 -0.257163 0.21851563 -0.14149646 -0.17863916 -0.3629085 -0.23003437 0.25851893
-0.1695726 0.24184528 0.22626005 0.3218991 -0.7226377 -0.26709816 0.08452715 0.28144652
-0.18247773 0.0010059355 -0.12567568 0.57076 0.08343558 -0.10084622 0.10369542 -0.3710849
-0.13754652 -0.4051918 -0.09779717 0.7894653 -0.19673239 0.0837824 0.08388302 0.0068439096
0.39999878 -0.08999583 0.33279884 -0.39248973 0.2391452 -0.019008836 -0.0010731881 0.18495063
0.06814716 0.22926907 0.23926066 0.03491937 -0.34020293 -0.46510872 0.28899866 -0.14585552
-0.06425046 -0.0038859216 -0.22427344 -0.6508061 0.67471427 -0.11304564 0.24357496 -0.13891819
0.04620661 0.28046453 0.37677783 -0.28702176 0.277198 -0.20808347 0.11638772 0.40682498
-0.06967484 -0.21161552 0.12830465 -0.5048119 -0.257514 0.21465313 0.14792685 0.17775951
0.25337398 -0.09150499 -0.09779668 0.0185609 0.2224661 -0.08708601 -0.25837007 -0.37773505
0.09936319 0.011602534 -0.16757125 -0.27312744 0.115192875 -0.19917978 -0.098408714 -0.28590488
0.2955991 0.012585208 0.32780567 -0.13310449 -0.13076468 -0.123142086 -0.20432775 0.12343091
0.22747973 0.01576705 -0.13141079 -0.11350179 0.31767705 0.012463346 -0.34648177 -0.33580294
-0.06502301 0.033432044 0.30185595 -0.019261785 0.13181077 -0.13474633 0.0844818 -0.2679437
-0.1979295 0.29124653 0.23011899 0.04970023 -0.12547386 -0.3835167 -0.46950367 -0.08292557
-0.13579115 0.032457046 -0.38926613 -0.2181574 0.51281047 0.13645273 -0.10779116 0.23803523
0.18605685 0.243705 -0.45749062 0.014697502 0.2622955 0.22377832 0.18576658 -0.31592783
-0.15969953 -0.05963049 0.0053693326 -0.6735368 0.54455 0.43680575 0.053023763 0.016450066
0.12400938 -0.09591868 -0.12156233 -0.11060376 0.06414739 -0.34449223 0.044170275 0.36479473
-0.25716132 0.29498577 -0.54393107 0.21506076 -0.038967274 0.05544506 -0.11960076 0.3234962
0.094583556 -0.24036954 -0.38614884 -0.069864534 0.29461443 0.20344259 0.018970212 -0.27004954

bias f4 [200]
00000000: 488c 3f3d 8360 35be ee0c febb 0b75 623e
00000010: 3068 a8be bfb5 b93e 5e86 0f3e cc3b c6be
00000020: 3faa 003e a86c 8dbd c2ae a23e dba6 9f3e
00000030: d3e8 ce3d 1f03 843e bf8f 613e cb61 093e
00000040: 0ccb 133e f0c6 6c3d db72 74be 511e aa3d
00000050: f3fa 8ebe 3a77 d9be f13e de3d dbfd bcbe
00000060: 3f9e 5a3e a683 39be c084 5c39 6970 c6be
00000070: 529d fabb 7913 54be d609 5dbe ead6 74be
00000080: 5025 683e d92b d8be 69bb d63d 3be0 45be
00000090: 0187 8bbd 0b21 6d3c 4702 79be 28e2 6dbe
000000a0: 4ed6 8a3e 3bcd 8cbc bef6 7b3d bb2e 74be
000000b0: a82d 723e 8fcf 433d 42d5 9a3e 3b70 39be
000000c0: 3e69 4ebd 2aad 883e 61e1 dc3c 6592 2abd
000000d0: 583f 34be 7eba 66be ad46 5d3e ee4c ccbe
000000e0: 5b58 bdbe f2cd 13be 5b0a 603c 7d9b 05be
000000f0: af3f 4c3e 7782 43be e8b6 a83e d0f2 053e
00000100: 91be 25be 06db b43c fae4 71be c1e3 7f3e
00000110: dc98 a83e 2570 85be d75b fe3c b846 853e
00000120: 8b44 1d3d 3067 c0be c07a 3c3e 42ab 943e
00000130: 691d 943e 63bb 72be d006 45be ac15 e03d
00000140: abd8 893d 0531 a13c f480 32be 7c62 59be
00000150: 0f9d 873e bec5 7e3e 24fc 4a3b c6aa fa3d
00000160: 016e e63d a3be c03e 3eca a7be 82ef d43d
00000170: ece1 77bd 6497 673d 14d4 50bd 8358 3e3e
00000180: 9fda 8e3e 80b7 febd 28ee 9b3d 8819 a33d
00000190: 694a 7b3e f6ef 9dbe 4ca5 94bd c7f6 1c3e
000001a0: 03a3 7dbe 880a a63d ec6d ae3e 816b 1c3d
000001b0: 476c 29be abba 8b3e 50ba e1be 8f79 903c
000001c0: 4a40 023e eab4 503e 336e b7be de41 1f3e
000001d0: 22b2 2b3d 7718 413d e94c 143e b340 68be
000001e0: 4382 20bd 0cd7 d7be fb81 95be ec4a 8cbe
000001f0: 796d 6c3e c01f 3dbe e4e4 173e 9025 d9bd
00000200: 7097 343e 184a 633e bb3a be3d 7d87 c53e
00000210: 4a9a 603e b920 67be 6002 423e 96f2 6b3e
00000220: 9d76 9dbe ac03 dcbd 483a 8ebe b92a 393e
00000230: 09fa fa3d e478 23be 3ea6 703d a087 03be
00000240: 9910 91be 92c4 913e 2e93 5b3d 6634 91be
00000250: 22c4 8b3e c42e 0f3e 8d93 0ebe 118a 393e
00000260: 83ee c43e a72f bc3e a73a 50be e803 cfbd
00000270: a0fc 68be d7e1 ed3c 189b 0dbd a08b e23d
00000280: f1c0 123e 726a 5d3e 51be babe b6f7 c73b
00000290: 15b7 ef3d 8321 25be c7c3 a33d 4974 013c
000002a0: 328c 683e 2ceb 7d3e 7e95 3e3e 1f93 b03d
000002b0: 4288 3dbe b0ea 093e 97b7 7abe 9c96 3d3e
000002c0: 54b8 823e 8582 9e3e 692b 8a3d 0b1c c1be
000002d0: fbcf b73d 6205 85be 34ee b7bd 0ece 92bd
000002e0: d773 833c 08cd 8c3e f420 283e e6b9 a9be
000002f0: 654c ca3d 9b74 843d b9e8 323e 4f21 9d3e
00000300: 6fe9 453e 3d5c cf3d 26ef a33e 5209 1d3e
00000310: a7fa 8ebd 8580 803e 2c51 12bd 644e 97bd
0.046764642 -0.17712598 -0.007753006 0.22114961 -0.3289199 0.36271474 0.14016101 -0.38717496
0.12564944 -0.0690549 0.31773955 0.31181988 0.101030014 0.2578363 0.22027491 0.13416211
0.14432925 0.05780691 -0.23871939 0.08306564 -0.27925834 -0.42473775 0.10851849 -0.36912426
0.21349429 -0.18116626 0.00021030288 -0.38757637 -0.0076481486 -0.20710553 -0.21585783 -0.23910108
0.22670484 -0.42220953 0.104849644 -0.19323818 -0.06812859 0.01447321 -0.24317275 -0.23230803
0.27116627 -0.017187705 0.06151461 -0.23845951 0.23650229 0.047805365 0.30240828 -0.18109219
-0.050393336 0.26694614 0.026962938 -0.04164352 -0.17602289 -0.22532079 0.21608992 -0.39902443
-0.36981472 -0.1443403 0.013674344 -0.13047595 0.19946168 -0.19092737 0.32952046 0.13080907
-0.16185977 0.022077095 -0.23622504 0.24989225 0.32929122 -0.26062122 0.031049652 0.26030517
0.038395446 -0.37578726 0.184062 0.2903691 0.28928688 -0.23704295 -0.1924088 0.109416336
0.06730779 0.019676695 -0.17432004 -0.21228975 0.26487014 0.2488012 0.0030973041 0.12239604
0.1125145 0.37645444 -0.32771486 0.10397245 -0.06051819 0.05654086 -0.050983503 0.18588452
0.2790117 -0.124373436 0.07613784 0.07963854 0.24540104 -0.30847138 -0.072580904 0.15328513
-0.24769215 0.081074774 0.3406824 0.03818846 -0.16545211 0.27290854 -0.44087458 0.017636089
0.12719837 0.20381513 -0.35826263 0.1555247 0.041917928 0.047142472 0.14482464 -0.22680931
-0.039186727 -0.42156255 -0.2920073 -0.2740091 0.23088636 -0.18469143 0.14833409 -0.106028676
0.17635894 0.22196233 0.09288546 0.38579932 0.21933857 -0.22571076 0.18946218 0.23041758
-0.30754557 -0.10742888 -0.2777884 0.18082704 0.12254722 -0.15964085 0.05875229 -0.12844706
-0.28332976 0.28470284 0.05360716 -0.2836029 0.27298075 0.13982683 -0.13923474 0.18119074
0.3846322 0.36755106 -0.20334874 -0.10108167 -0.22752619 0.029038353 -0.034571737 0.110617876
0.14331414 0.21622637 -0.36473325 0.0061025275 0.11704842 -0.16126065 0.07996326 0.00790126
0.2270973 0.24796742 0.18611714 0.08621811 -0.1850901 0.13468432 -0.24484096 0.18514484
0.25531256 0.30958953 0.06746561 -0.37716708 0.08975216 -0.2598067 -0.089809805 -0.07168208
0.016046448 0.27500176 0.1641882 -0.33149642 0.09877852 0.06467553 0.17471589 0.30689475
0.19327329 0.10125015 0.32018393 0.15335587 -0.06981402 0.25098053 -0.035721943 -0.07387999

weight f4 [4, 200]
00000000: 7632 1cbd c9ba 2b3d e327 08bd 418e 2ebd
00000010: 5d34 bfbd 30f4 05be 3af1 8cbd 3ddf bf3c
00000020: a7ac 02be 26c3 a6bd a98d dfbd ae27 d1bd
00000030: 5ad1 1fbc 5b10 db3d 3f51 e13c 69f7 ccbd
00000040: c564 2abd d444 3ebe 80da 35bd 8f08 ccbd
00000050: 1037 3ebc e4f0 9cbc fd37 7dbc c425 a4bd
00000060: 1a64 25bd 8335 143b 99f9 b0bd 5b9c c9bc
00000070: 15c8 5dbd cea2 98bd 418d cd3c 9976 a3bc
00000080: cfc7 58bd e5fa 503c c4e7 d1bb f6d4 9d3d
00000090: f17e a0bd 5f0b 9fbd 7208 6f3d 3320 6bbd
000000a0: c650 bcbd 1d63 a9bd cb1e d4bd 6b91 08be
000000b0: 2e3c adbc 2f69 913c 2536 b5bd a357 4ebc
000000c0: b56e b0bd 4ec1 46bc 0a13 ecbd 0dcc a0bc
000000d0: 8427 d2bd fc0f c83c 12b3 533d 5bb7 123d
000000e0: efaa 633d acf2 2f3d 87cb 2f3d d551 e8bc
000000f0: 741e 3fbd 6654 1cbc bebb 7ebd 4a1e 35be
00000100: bbdb 213b 7e2a 24be 954a f8bc 031d 09bd
00000110: 93c3 19bd cc42 8d3b 7d11 683c d55d 0dbd
00000120: a753 5fbd 4ad6 5d3d e981 57bd 5133 ef3c
00000130: 2aaa 08be 6b2e 15bd fe41 9abc 0598 553c
00000140: 3ced 1dbe 9de2 9ebd 1fab 92bd 355b d83d
00000150: 78c8 213c f087 d0bc e08e 33bd 7c39 e4bd
00000160: ada8 2bbd a5a2 acbc 5f00 b43d 65d0 f8bc
00000170: 9cd1 893d 583e a0bd 99d7 8cbd a045 3fbd
00000180: 7935 f23c b52a 3dbc 4d09 9fbd e10e 4fbd
00000190: dbe0 44bd 8188 ad3d 22e4 84bd 1746 0c3c
000001a0: 76f6 56bd 6f69 40bd 8af1 e7bd bbc1 c83b
000001b0: 7dbc 1a3c 83d5 00bd 2855 73bc f1b6 e9bc
000001c0: 533b 6d3d f343 0abd 92c1 91bd fda9 473c
000001d0: fad1 efbd 8ee4 73bd 7906 48bc 2711 813d
000001e0: bc4b b8bd cd88 c93d 0c74 1f3d fc37 633d
000001f0: 099f bfbd efba be3c 708b 4cbc d54a 843d
00000200: 7ae2 5bbe 8e63 eb3c 86e1 9ebb 8f81 4fbe
00000210: 1ccf 87bd b9df c0bd d30f c13b 64ad b1bd
00000220: e8d1 07bd 8741 c6bc 9fa5 cf3c 02bf 29be
00000230: d413 a4bc 7cf1 61be 7373 1dbe a695 ba3d
00000240: 58c0 003d ca95 df3c d878 573d bf2b 81bd
00000250: a4b5 1dbd 264b dbbd 6a21 3abd ce55 b43c
00000260: fdb7 cabd 6624 46bd 3618 e7bd 2fdd d1bc
00000270: 2e4f 0c3e ced6 62bd ae57 63bd c980 3dbd
00000280: 545d a03d 47cb 50bc 016a f4bc 361b febc
00000290: f01d 8ebb 3844 eebd ab6c fa3b 5b08 b4bd
000002a0: 2a1a c5bd 8b0e d0bd 05f8 ac3c 12a6 27bd
000002b0: 5f54 b73d 70fc 3ebb 1dc4 553b f669 70be
000002c0: 9a50 fe3c 422d 40bd 7416 0d3c a85d 103d
000002d0: 57c2 b5bd 7eff 98bd 4d21 8abb 5286 b63d
000002e0: 642f b43c 13f2 b3bd 146c 80bd 2365 aabc
000002f0: 86ed 59bc 9c7c 963d 5412 68bd fe72 d6bd
00000300: 9674 ddbd f4db 04bd acba d0bd ada8 4a3d
00000310: 5ed4 15be c8c7 37bd 8475 fdbc c800 86bd
00000320: b88d c63d f60f a33e a7a8 31bc f1a6 95bd
00000330: 974a 303d a968 6b3e 5a61 283e 3cee 683b
00000340: cf0d 6dbc 695a 69bd 9d63 02be 0615 013d
00000350: 5fbd a83e 3c04 6a3e 8ba9 3a3e 2f91 8fbd
00000360: fd1e a73d 475c 6cbe 835a 8abd ecca 79bc
00000370: 0a4c 2ebd c2dd 4cbc 0916 cebc 6bcd 23bd
00000380: 288b e43b 2e34 993d 8edb 2fbe 8405 edbd
00000390: 04b5 b2be 1ff6 c5bd af1c 0fbd 7ac0 0dbd
000003a0: 9692 083e 4d44 ee3c defc 4cbd 2d60 4cbd
000003b0: 5ce1 863d 6a27 cd3d e25d a8bc 937d b43d
000003c0: a188 da3d b5fc 873e 991d 563d 2da2 f03d
000003d0: 49e7 183e bf94 963e b248 c2bd e7ec 663e
000003e0: c062 aebb 7b41 563e 2256 6ebe c5fd a9be
000003f0: 51e2 9cbe 6ee4 13bd 7fb5 f4bd 7936 653d
-0.03813406 0.04192618 -0.033241164 -0.042616133 -0.093361594 -0.13081431 -0.06881948 0.023421878
-0.12761174 -0.0814269 -0.109156914 -0.102126464 -0.009754503 0.10696479 0.027504561 -0.10008127
-0.041600008 -0.18580943 -0.04439783 -0.0996257 -0.011609808 -0.019157834 -0.015455243 -0.08015016
-0.040378667 0.0022614903 -0.08641357 -0.024610689 -0.05414589 -0.074529275 0.02509177 -0.019954013
-0.052924927 0.01275513 -0.0064058024 0.07706635 -0.07836712 -0.07765841 0.058357663 -0.057403754
-0.09195094 -0.082708575 -0.10357436 -0.13336723 -0.02114686 0.01775035 -0.08848218 -0.012594136
-0.08614866 -0.012131048 -0.11527069 -0.019628549 -0.10261443 0.024421684 0.051684447 0.035819393
0.055582937 0.04295604 0.04291871 -0.028359333 -0.0466599 -0.0095416065 -0.062190764 -0.17687336
0.002469762 -0.16031834 -0.030309001 -0.033474933 -0.03754003 0.0043109413 0.014164326 -0.034513313
-0.054523136 0.05415944 -0.052614126 0.029199274 -0.13346162 -0.03642122 -0.018830296 0.013036733
-0.15422529 -0.07758067 -0.07161545 0.10564271 0.009874456 -0.025455445 -0.043837428 -0.11143777
-0.04190891 -0.021073649 0.08789133 -0.030372808 0.06729433 -0.07824391 -0.068770595 -0.04669726
0.029566513 -0.011545827 -0.07765446 -0.0505513 -0.048066 0.08473302 -0.064888254 0.008561633
-0.052481137 -0.04697555 -0.11325367 0.00612661 0.009444353 -0.03145362 -0.014851846 -0.028529616
0.057917904 -0.033756208 -0.07116999 0.012186524 -0.11709972 -0.05954414 -0.012208574 0.063021
-0.0899882 0.09840546 0.03892903 0.055473313 -0.093565054 0.023282496 -0.012484416 0.064595856
-0.21473113 0.028733995 -0.004848662 -0.20264266 -0.066313 -0.09417672 0.005891779 -0.0867565
-0.033159167 -0.024201168 0.025347529 -0.1657677 -0.020028986 -0.22064775 -0.15376072 0.091105744
0.031433433 0.027293105 0.05260548 -0.06307172 -0.038503304 -0.10707693 -0.045442022 0.022013571
-0.09898374 -0.048374556 -0.11283915 -0.025618164 0.1370208 -0.055380635 -0.05550354 -0.046265397
0.07830301 -0.012743778 -0.029835703 -0.031018835 -0.004337065 -0.116341054 0.0076423488 -0.08790656
-0.09624131 -0.10159024 0.021114359 -0.04092986 0.089516394 -0.0029142164 0.0032618113 -0.23477921
0.031044293 -0.04691816 0.00861131 0.035245568 -0.08874958 -0.07470606 -0.0042153955 0.08912338
0.021995254 -0.08786406 -0.06270614 -0.020800179 -0.013301259 0.07347986 -0.056658104 -0.10471152
-0.10813253 -0.032436326 -0.10191855 0.049477268 -0.14631793 -0.04486826 -0.030939825 -0.06543118
0.096949995 0.31848115 -0.0108434325 -0.07307232 0.043039884 0.22989143 0.16443387 0.003554239
-0.014468624 -0.056970987 -0.12733312 0.03151419 0.3295698 0.22853178 0.18228738 -0.070101134
0.081602074 -0.23082076 -0.06755545 -0.015246134 -0.042552985 -0.012504043 -0.025156992 -0.039990824
0.0069745965 0.074806556 -0.17173597 -0.11573318 -0.3490373 -0.096660845 -0.034939464 -0.034607388
0.13337168 0.029085303 -0.05004584 -0.049896408 0.06585953 0.10017283 -0.02055258 0.08813014
0.10670591 0.26559988 0.05227432 0.117496826 0.14931978 0.2941036 -0.09486522 0.22551309
-0.0053218305 0.20923416 -0.23275045 -0.33201423 -0.30641416 -0.03610652 -0.1194868 0.055960152

bias f4 [4]
00000000: fc24 00be 0297 13bd f306 3e3d a9c2 7cbd
-0.12514108 -0.036032684 0.046393346 -0.06170908
